hardwareBackend/best_model2.pt (torch, 84342 bytes, 14 tensors)

conv1.weight f4 [32, 1, 3, 3]
000000 cd 9e af 3e e8 35 f6 3d 7f 7a 12 be 2c 30 b4 3e
       0.34300843 0.120220006 -0.14304541 0.35193002
000010 5b c5 34 be f1 c6 02 be d8 78 45 be 60 2b e9 bd
       -0.1765341 -0.12771203 -0.1928438 -0.11385226
000020 a2 51 5d 3e 61 49 cc be 5e 60 81 3e 92 30 67 3d
       0.21613172 -0.39899734 0.25268835 0.056442805
000030 14 41 30 3e b3 84 8e 3c a9 d7 00 bd d7 44 06 be
       0.17212325 0.01739726 -0.03145567 -0.13112198
000040 44 c0 eb bd af 25 61 bd 1d 4c 25 be df 27 1b 3e
       -0.11511281 -0.05496758 -0.16142316 0.15151928
000050 5e 83 5e 3d 1b ba c2 bd c1 2f ea 3d 0a c0 81 3e
       0.0543245 -0.09508153 0.114348896 0.25341827
000060 4a 8d 9d be 6a 50 04 be 96 07 cf bd 4b a4 8f be
       -0.30771858 -0.129213 -0.10108869 -0.28055033
000070 e5 9e 98 bc 0b 48 c1 be 6c bd 1a 3e 7e 9d 59 be
       -0.018630454 -0.37750277 0.15111321 -0.21251485
000080 15 95 28 3e ad 85 3c 3e 13 c8 4d be fe 31 d3 3e
       0.1646312 0.18410368 -0.20095854 0.4124908
000090 76 dc 13 3d 97 63 5a 3e b7 6c d1 3c aa a6 91 be
       0.03609892 0.21327053 0.025564535 -0.28447467
0000a0 91 75 d0 bd 59 b9 24 be 96 83 98 bc 0f b6 b1 3e
       -0.10178674 -0.1608633 -0.018617433 0.34709212
0000b0 e9 7e c1 3d 16 5c 38 3d 8a 65 8d 3e c0 fc 4e 3c
       0.09448034 0.045009695 0.2761653 0.0126335025
0000c0 a9 04 94 3e fd 1f 65 be f5 d7 9c be 42 89 c7 bd
       0.28909805 -0.22375484 -0.30633512 -0.09742977
0000d0 08 d8 8a be 61 a4 82 3e ab 73 1a 3e 58 97 87 3e
       -0.27117944 0.25516036 0.15083186 0.26482654
0000e0 3c 11 e5 bd 74 e7 94 3d cd 99 51 3e 46 cb 30 be
       -0.11184928 0.07270709 0.20468827 -0.17265043
0000f0 db d5 94 bd 44 74 a1 be 3b 99 cb 3c 1c 0e 4d 3d
       -0.07267352 -0.31534016 0.02485334 0.050062284
000100 72 72 c3 bc c0 2e a2 bb 01 81 27 3e 9d eb 2d be
       -0.023858283 -0.0049494207 0.16357805 -0.1698441
000110 42 fe bd be 0b 60 6a be 18 05 93 3e ed 5f 45 3e
       -0.37108046 -0.228882 0.28714824 0.19274874
000120 f4 d2 a1 3e c1 de d8 be 26 df 8b be 02 8a 8d be
       0.31606257 -0.42357448 -0.27318686 -0.27644354
000130 90 67 1c be b3 d9 83 3e 8c 9c a1 3d 3b c6 95 3e
       -0.15273881 0.2575203 0.07891187 0.292528
000140 f2 45 88 3c 5b da e8 3d bc 40 ff 3b 81 82 3d 3d
       0.016634915 0.11369773 0.0077896994 0.046267036
000150 68 cf c0 3d e0 3e 80 be 6d d7 ce 3d af e9 bf be
       0.094145596 -0.2504797 0.10099683 -0.37482974
000160 b3 d4 15 be 56 4c bc 3e a8 e7 03 bd d8 83 26 be
       -0.1463192 0.3677699 -0.032203346 -0.16261232
000170 1b ab 63 3e 8b a2 8d 3e 0d 15 7b be 0f 55 4c be
       0.2223324 0.27663073 -0.24519749 -0.19954322
000180 eb ae 9b 3e 79 f7 44 bc 3d d7 1d be 42 2c fb bd
       0.3040689 -0.012021893 -0.15414138 -0.12264301
000190 06 43 8f bd b0 40 b7 3e 0c 74 b6 3d 0a 43 9e be
       -0.069952056 0.3579154 0.08908853 -0.30910522
0001a0 45 1c aa 3d 46 6f b9 be 54 69 81 be ad 2f 89 be
       0.08306173 -0.36217707 -0.2527567 -0.26794186
0001b0 07 d3 a9 be 56 4a 82 3c 1d 4d bd 3e 90 47 d2 3d
       -0.33168814 0.015904587 0.36972895 0.10267556
0001c0 a5 56 2c 3e bc 65 20 be 11 d6 97 be 08 a1 1c bd
       0.16829927 -0.15663809 -0.29655507 -0.03823951
0001d0 9b 39 64 3d 15 37 d4 be 2f 5a b5 bd 8b 48 9a be
       0.055719 -0.41448274 -0.08855092 -0.3013347
0001e0 b9 7e c4 3d c3 5a 83 3e 68 16 12 3d 35 4d 85 be
       0.09594483 0.25655183 0.0356659 -0.26035467
0001f0 2e e3 3a be a2 69 65 be 49 88 52 be 9d 60 47 be
       -0.18250725 -0.22403577 -0.20559801 -0.19470449
000200 40 80 7d 3e 10 8d bd bd a7 3c 85 3e 86 40 8c 3d
       0.24755955 -0.09255421 0.26022837 0.06848244
000210 8f 02 9b be b7 21 87 3e 5b 42 8c be 55 42 ed bd
       -0.3027539 0.2639291 -0.27394375 -0.115849175
000220 24 e0 bf be c6 65 96 be 72 9e 30 3d ff 37 67 3e
       -0.37475693 -0.29374522 0.043119855 0.22579955
000230 61 cb dc 3d 80 e1 cf be fa 1e 41 3e 47 93 dd 3d
       0.10780979 -0.4060173 0.18859473 0.108191065
000240 76 cc 6f bd 09 38 1e 3e 53 a2 4e 3d 02 61 a6 3e
       -0.0585446 0.15451063 0.050447773 0.32495886
000250 72 92 70 3e a5 9b 80 be d7 5b a1 3d 43 c9 50 be
       0.23493364 -0.25118747 0.07878845 -0.20389275
000260 a3 d9 30 be e0 f6 b7 be 25 6f 76 3e 16 73 b8 be
       -0.17270522 -0.35930538 0.24065836 -0.36025304
000270 79 b3 1d bd 32 2a 5d 3e 9f 43 f8 bd 5a 7f 67 be
       -0.038501237 0.21598127 -0.12122273 -0.22607175
000280 07 28 0f 3e 0e 65 3b 3e 3e f6 94 3d 44 b0 9b be
       0.13980113 0.18300268 0.072735295 -0.30407917
000290 db 58 96 3c 7c 0c 1f 3e ef 0b 25 be 8f 2b bd 3e
       0.018352916 0.15532106 -0.16117834 0.36947295
0002a0 cc 18 d0 3d c0 57 91 be e3 c9 a4 bb 15 b9 9e bb
       0.1016098 -0.2838726 -0.0050289496 -0.004843841
0002b0 ea bc 9c 3d 7a 3c 44 3d 07 88 07 be a3 0a d3 bd
       0.0765322 0.047909237 -0.13235484 -0.10304763
0002c0 f4 db 86 be a6 cb a7 3e 7f 27 93 3e e9 be ae be
       -0.26339686 0.3277256 0.2874107 -0.34130028
0002d0 75 a1 6f bd 32 27 89 3e c6 d3 04 3e 43 1a 79 be
       -0.058503587 0.26787716 0.1297141 -0.24326424
0002e0 85 82 64 bd d1 88 1b 3e 7e 59 b7 3d 8a c3 a0 bd
       -0.055788536 0.1518891 0.08952616 -0.07849796
0002f0 6b 10 8d bd c8 13 ac 3c 05 dd 10 bd 76 93 5a be
       -0.06887897 0.021005526 -0.03536703 -0.21345314
000300 35 c4 c9 3d 2b b0 b4 3e 55 82 8d bd a5 d0 20 be
       0.09851877 0.35290655 -0.069096245 -0.15704592
000310 d8 8f 93 bb e3 39 83 bd 03 7d e3 3d 91 7d 05 3e
       -0.0045032315 -0.064075254 0.111078285 0.13036181
000320 81 82 4a be e1 23 0c be b4 83 85 3e 05 96 88 3e
       -0.19776346 -0.13685562 0.26077044 0.26676956
000330 fb 54 35 3c 06 1e 8a be c3 10 41 be 7a b5 6e be
       0.011067624 -0.2697603 -0.1885405 -0.23311415
000340 d9 ea 22 be 10 37 97 3d a6 fa 92 3e ff b8 dc 3d
       -0.159099 0.07383549 0.28706855 0.10777473
000350 cc 4e 6a be 68 74 8d be 87 f7 6c 3c 74 98 da 3e
       -0.22881621 -0.27627873 0.014463312 0.42694438
000360 50 bc 81 3e d4 ac 6d bc f1 0f b7 3e ad be bb bc
       0.25338984 -0.0145065375 0.3575435 -0.02291807
000370 fc f7 d8 bd 2b 58 c9 3d ca 24 4c be 2c 01 a0 bd
       -0.10594174 0.0983127 -0.19935909 -0.078127235
000380 84 3a a8 be be ea 48 3e 78 53 9e 3e 6a f2 3c 3d
       -0.32857144 0.19620797 0.30923057 0.04612962
000390 db 10 5f be 96 6c df be 31 5d 96 be dd bf c0 3d
       -0.21783774 -0.43637532 -0.29367974 0.09411595
0003a0 58 09 6f 3e 2f 12 2e 3e b7 10 8c 3e ee bf 8d 3e
       0.23343408 0.16999124 0.27356502 0.27685493
0003b0 cd b8 6a 3d 37 27 4d bd 72 0c 97 be da d2 5a be
       0.057305146 -0.050086226 -0.29501683 -0.21369496
0003c0 78 05 59 3e ae c2 e3 bd 7a 19 af bc fa a0 0d be
       0.21193492 -0.111211166 -0.021374453 -0.13830939
0003d0 fb a8 e8 3c 36 37 d7 bd 56 ee a3 bc ae fd 71 3e
       0.028400889 -0.105085775 -0.020011108 0.23631927
0003e0 72 ac 65 3b 43 b8 86 3e 38 71 84 bd d0 de a5 be
       0.0035045412 0.26312456 -0.06466907 -0.32396555
0003f0 12 47 dc bd 44 7e a4 bd 3e e8 e2 bd b1 10 b7 be
       -0.10755743 -0.08031896 -0.11079453 -0.35754922

conv1.bias f4 [32]
000000 6f c3 93 3e 37 8e 11 bd f7 1d 02 be 94 7b 49 be
       0.28860041 -0.035536017 -0.12706743 -0.19676048
000010 86 1e 55 be 09 1f 8e be d0 85 0f 3e 5f 7c 2f be
       -0.20812425 -0.27758053 0.14015889 -0.17137288
000020 29 e6 7b be ef 9e 2e 3d a9 0d 69 bd 5c fa 23 be
       -0.24599518 0.04263204 -0.056897793 -0.16013473
000030 7e 68 fe bd 87 c6 fc bc 75 cd a9 bd 2c 77 40 be
       -0.12422274 -0.030856384 -0.08291141 -0.1879546
000040 7d 20 4d be 47 55 94 3e 66 f5 9a bd 25 86 61 3e
       -0.20031925 0.2897131 -0.07566337 0.22023828
000050 36 ad f9 3c 5b ad 0f 3e 33 24 86 3e 01 79 a4 3d
       0.030478101 0.14030974 0.26199493 0.08030892
000060 ad d4 98 be 9a fe 4b 3e 65 cb 9c 3e ee 8a ec 3d
       -0.2984976 0.19921342 0.30623928 0.11549936
000070 35 86 62 3e 1b e4 b5 3e 1c db 07 3d 6f 94 c2 bb
       0.22121508 0.35525593 0.033167943 -0.005938105

bn1.weight f4 [32]
000000 f9 4c 43 3f 91 4c 04 3f c2 cb 5a 3f 98 4c 7f 3f
       0.76289326 0.5167933 0.8546716 0.9972625
000010 06 0d 5b 3f 2d 68 89 3f cc c5 4e 3f 42 b6 3b 3f
       0.8556675 1.0734917 0.80770564 0.7332498
000020 70 e6 9b 3f 67 e7 86 3f e9 25 95 3f 15 07 35 3f
       1.2179699 1.0539368 1.1652194 0.7071393
000030 2b fe 85 3f 57 81 39 3f 6c 83 75 3f d0 30 4e 3f
       1.0468191 0.7246298 0.9590366 0.8054323
000040 22 f0 7f 3f 33 1b 16 3f be 1c 9d 3f 29 8c 8d 3f
       0.9997579 0.5863525 1.2274396 1.1058398
000050 da 8f 91 3f bd dc 90 3f 46 ec 8a 3f 4e 6c 8b 3f
       1.1372025 1.1317364 1.0853355 1.0892427
000060 fc 3a 8b 3f d4 1d 91 3f b6 da 37 3f 0a b6 8f 3f
       1.0877376 1.1337228 0.718181 1.1227429
000070 2f 29 50 3f 48 d8 91 3f 78 82 3e 3f 62 6e 8c 3f
       0.8131284 1.1394129 0.7441783 1.0971186

bn1.bias f4 [32]
000000 a6 0d 41 bd f0 7f 8c be 54 8d 96 bb be a5 3d 3e
       -0.047132157 -0.2744136 -0.0045944843 0.18520257
000010 ac 00 c3 be 22 f1 a2 be c1 f1 1a bf db 19 62 be
       -0.3808645 -0.31824595 -0.6052514 -0.22080176
000020 3f e1 ab be 72 b5 9d be 0b 71 d9 bd b7 ce 8c be
       -0.33570287 -0.30802494 -0.10617264 -0.2750146
000030 a8 13 06 bf fc 43 ae be de a3 05 bf 7e aa ed be
       -0.52373743 -0.34036243 -0.52203166 -0.46419138
000040 d6 f9 fc bd 17 7b f6 be 0f 5b 3e 3e 93 0c 94 be
       -0.1235234 -0.48140785 0.18589424 -0.28915843
000050 85 fb 9a be 95 3b 1e be c0 44 0d be b6 da a3 be
       -0.3027002 -0.15452416 -0.13795757 -0.320028
000060 9e 2b a4 bd 85 c5 de bd ae 67 9e be f3 35 8b be
       -0.08016132 -0.108775176 -0.30938476 -0.27189597
000070 d5 b2 28 3d 8f bf 72 be d8 24 08 be ec e4 97 be
       0.041186173 -0.23705886 -0.13295305 -0.2966684

bn1.running_mean f4 [32]
000000 05 de 7f 3e e4 36 81 bb 04 c9 cb bd b7 c1 29 be
       0.24987037 -0.003943311 -0.0995045 -0.16577803
000010 df 89 6e be e4 4f 86 be f5 5d 03 3e d1 47 1e be
       -0.23294781 -0.26232827 0.1282881 -0.15457083
000020 17 d8 5b be 17 e7 71 3d 8b bf 38 bd fe 31 39 bc
       -0.2146915 0.059058275 -0.045104545 -0.011303423
000030 6f a6 e7 bd 69 d1 00 3e 63 80 76 bd a2 55 f9 bd
       -0.113110416 0.12579884 -0.060181033 -0.12174536
000040 1b dc 6d be c4 36 a4 3e 3e ab 77 bd 2b d0 71 3e
       -0.23228495 0.32073033 -0.060466044 0.23614566
000050 72 aa 39 3c 6c 06 0c 3e 97 d0 81 3e 85 e2 9d 3d
       0.011332141 0.13674325 0.25354454 0.07709221
000060 e7 50 91 be a8 85 4b 3e 34 2a 9a 3e 21 d6 fd 3d
       -0.28382036 0.19875205 0.30110323 0.123943575
000070 27 e1 76 3e 7a 4f b7 3e 2c 3d 0c 3d 0e aa 2f bb
       0.24109326 0.35802823 0.034238026 -0.0026804241

bn1.running_var f4 [32]
000000 72 4b 9f 3c 29 12 36 3d 86 f1 fd 3c ff 2b 73 3d
       0.019445155 0.044450913 0.030998956 0.05936813
000010 80 ba 1e 3c e5 9f ae 3c 9b 69 d9 3c 51 91 a5 3c
       0.00968802 0.021316478 0.026539614 0.020210894
000020 54 34 04 3d ad ba 83 3c 91 a0 64 3c a8 5d a2 3d
       0.032276466 0.016080225 0.013954298 0.0792802
000030 ca 51 95 3c 7b a7 8a 3d f7 f3 01 3d a8 80 13 3d
       0.018227477 0.067702256 0.031726804 0.036011368
000040 60 7d 8b 3c 3c c8 40 3d ed 0f 2e 3c d0 8b 89 3c
       0.017027557 0.04706596 0.010623914 0.0167903
000050 9a 30 22 3c 79 fd e8 3b 0c 50 91 3c 2d 11 cf 3c
       0.009899283 0.0071102944 0.017738365 0.025276745
000060 2a 3d 15 3d 85 b0 72 3c e3 f8 8d 3c ba 01 0c 3c
       0.036435284 0.014812593 0.017330592 0.0085453335
000070 e9 41 28 3d c1 ae 8c 3c e4 77 2e 3d 5f d8 fa 3c
       0.04107848 0.017173173 0.042594805 0.030620752

conv2.weight f4 [64, 32, 3, 3]
000000 36 8c 62 bd 85 04 35 bc 70 c3 c8 3c 4e 50 c2 3d
       -0.055309497 -0.011048441 0.024507254 0.09487973
000010 90 e1 44 bd 66 4b 6f bd 83 c8 6b bd a4 3a 62 bc
       -0.048066676 -0.058421515 -0.05756427 -0.013807926
000020 c0 62 5e bd 6e 01 2b bd 15 25 15 bd 51 9c 32 bd
       -0.054293394 -0.04174941 -0.036412317 -0.043606106
000030 65 b8 65 bd c4 66 b3 bd cd df aa bb f4 1d 0b bd
       -0.056084055 -0.08759835 -0.0052146674 -0.033964112
000040 e9 88 44 bd da ec 20 3d 44 39 aa 3d 6a f3 ac bd
       -0.04798213 0.03928838 0.08311704 -0.08444865
000050 13 ef 10 bd 8b ec 5a bd 0c c8 8f bd 9c 86 c2 bd
       -0.03538425 -0.05344824 -0.07020578 -0.09498331
000060 3b e3 4d be 68 f7 03 be 48 44 8a bc 45 ef ba 3c
       -0.20106213 -0.12887347 -0.016878262 0.02281917
000070 96 18 0d 3d a8 ce c2 3d 75 7b 29 3c 1f 15 9c 3b
       0.034447275 0.09512073 0.010344376 0.00476326
000080 52 2b cb 3c bd cf e1 3c 08 eb c1 3c 89 79 3f 3d
       0.02480093 0.027564878 0.023671642 0.046746764
000090 bb cc 95 3b 04 56 43 bc ac e9 1d be 6c d7 4e bc
       0.004571525 -0.011922363 -0.1542117 -0.012624603
0000a0 3d 1e 85 bc 3c 80 f9 bc 68 61 ef bd 9a 2c bb 3d
       -0.01624977 -0.030456655 -0.11688501 0.091393664
0000b0 b7 8a 60 bd f1 b3 2e 3e a2 45 e3 3d dd 1b 92 3d
       -0.05481979 0.1706083 0.11097266 0.07134221
0000c0 b0 3a b1 3d 9b 03 44 3c cb 72 56 3e c5 8a 42 3e
       0.08653772 0.01196375 0.20942228 0.18998249
0000d0 da 61 0c 3e bf 94 86 3e 24 fd ba bd 89 4a a7 bc
       0.13709202 0.2628536 -0.09130314 -0.020421283
0000e0 49 9a 49 bd 27 61 89 bb 90 77 aa 3d de 65 15 be
       -0.049219403 -0.0041924897 0.08323586 -0.1458964
0000f0 32 6a b5 3d 65 7c b0 3d 56 15 85 bb 0a e9 37 3e
       0.08858146 0.086174764 -0.0040613813 0.17959991
000100 cb 65 41 3d 8b 22 98 bd 06 cf 6f bd d9 3b 91 bd
       0.047216218 -0.074284635 -0.058547042 -0.07091493
000110 fa f3 27 bc e0 85 de bd df dc 2e bd 33 fb f3 bd
       -0.01025104 -0.108653784 -0.042691108 -0.11913147
000120 c5 3b ae 3d 07 e1 8a 3d fa 25 2e 3e 2a ee fe bc
       0.08507494 0.06781202 0.17006674 -0.031119425
000130 0b bf c5 3c 13 35 c6 3c a6 2d 0b 3d 6f bd a6 3d
       0.024138948 0.02419523 0.03397908 0.081416
000140 e0 74 16 3e c8 fc 0a 3e 07 7c 6a bd 4a 4b 1e 3b
       0.14693022 0.13572991 -0.057247188 0.0024153762
000150 c0 87 d4 bc 72 23 b1 bd e3 bc da bd e0 86 5a bd
       -0.025943637 -0.08649339 -0.106805585 -0.053351283
000160 f1 d5 79 bc 38 61 ba 3d 4e 82 8e bd 6f b7 64 3d
       -0.0152487615 0.09100574 -0.069584474 0.055839
000170 76 65 b0 3d 7e 6a ff bd 7a fe 0e be b1 77 54 bd
       0.08613102 -0.12471484 -0.13964263 -0.05187196
000180 78 d2 8a 3c e6 18 34 be ad 65 9d bd 88 f0 24 3d
       0.016946062 -0.17587623 -0.07685409 0.04026845
000190 4a 2f ff 3b 6a d5 02 bc 4a 6a 1c 3d 80 9e 69 3d
       0.0077876197 -0.007985452 0.038187303 0.057035923
0001a0 34 f8 6f 3d 92 c2 a3 3d 1a 11 f1 3b 93 b3 1b 3c
       0.058586314 0.07996096 0.007356775 0.009503263
0001b0 a3 12 97 3d 4f 43 32 bd ef 4c 1b be 3c 64 38 3c
       0.073766015 -0.04352122 -0.15166067 0.0112543665
0001c0 11 48 21 bd 50 87 89 bd cf f6 1b be 21 80 a3 3d
       -0.03937537 -0.06715262 -0.15230869 0.07983423
0001d0 82 86 b5 3d 52 38 8a 3d a3 95 dd bd 72 6f 30 bd
       0.08863546 0.067490235 -0.108195566 -0.043075033
0001e0 dd 1b 4a 3d 53 95 91 3d d2 5a c2 3c ff 8f 9c 3d
       0.04934298 0.071085595 0.023724947 0.076446526
0001f0 67 bb 68 3c 09 c2 5e 3d 94 ac 0f 3e 83 f1 55 bd
       0.014204836 0.054384265 0.14030677 -0.052232277
000200 80 18 ad bd a6 99 60 bd 6f 0c bd bb b2 ae 0d be
       -0.08451939 -0.05483403 -0.0057693045 -0.13836172
000210 55 82 ea bd 50 e2 fd bd 2d 38 b8 3a 45 c4 54 3e
       -0.1145064 -0.12396681 0.0014054828 0.20777996
000220 72 87 bf bd e0 8a 87 bb 22 41 d7 3d 3a 63 8b 3c
       -0.09352006 -0.0041364282 0.1051047 0.017015088
000230 2e 4a 0f 3d 95 9c 8a 3d bf 56 0b be 79 91 59 bc
       0.034982853 0.06768147 -0.1360731 -0.013279312
000240 0f fd 57 bd 00 97 ef 3c 51 07 41 bd 67 54 41 3d
       -0.05273157 0.029246807 -0.047126118 0.047199633
000250 bd c7 f1 3d cc 2c e5 3c 9c ed cc 3d e7 5a e7 3d
       0.11805675 0.027975462 0.10006258 0.11296635
000260 6a 11 5c 3d df 5e 49 3d c3 9a 0d be 2f 0f d4 3c
       0.053727545 0.04916274 -0.13828568 0.025886146
000270 ea d0 3c 3c f2 69 b6 bc 37 d9 63 3d d3 3c 51 3d
       0.011524418 -0.022267316 0.055627074 0.051083397
000280 42 1f 32 3d f7 6c 0e 3d a4 86 46 3e ce 5c 92 3d
       0.04348684 0.034771886 0.19387299 0.07146607
000290 b9 12 38 3e 78 7b 2e bd 13 0e 9c 3c f4 ed 98 bc
       0.17975892 -0.042598218 0.01904968 -0.018668152
0002a0 11 0d 66 bd 37 a4 b0 3d 9a 70 30 bd 2f 48 75 be
       -0.056164805 0.086250715 -0.043076135 -0.23953317
0002b0 5d 78 32 be 2f 19 ac bd 78 66 b8 bd 17 63 85 bd
       -0.17428727 -0.08403241 -0.09003919 -0.065130405
0002c0 4a 75 04 bd ff 28 e6 bd 0f cc 30 be 15 bd 6a be
       -0.032338418 -0.11238288 -0.17265342 -0.22923692
0002d0 33 14 af 3b 59 be ce bc ba ec 9d 3d 1a 0a fe bc
       0.005342984 -0.02523725 0.07711168 -0.031010676
0002e0 f9 8d b5 bb 9c 51 05 3d f6 30 d7 bd 53 03 cd bd
       -0.005540606 0.032548532 -0.105073854 -0.100104
0002f0 a0 9a ec bd f8 21 83 bd 48 ab 45 3e 88 28 de 3c
       -0.1155293 -0.064029634 0.1930362 0.027118936
000300 11 c9 df 3c c1 f0 3f be 29 89 be bd 4a 05 96 bc
       0.027317556 -0.18744184 -0.09303505 -0.018313069
000310 a2 3b 36 3d d4 46 01 3d 0b ac 62 bb 40 b0 dc ba
       0.044490464 0.031561688 -0.003458741 -0.0016837195
000320 ac 0e e6 3d 50 6a 54 be c0 af 5c 3c 4c d8 f3 bd
       0.11233267 -0.2074368 0.013469636 -0.1190649
000330 fa 0a ac 3c d1 b6 ac bd fa 6f f4 3c 65 e0 4b 3c
       0.021001328 -0.08433307 0.02983855 0.012443637
000340 b8 03 a7 bd 76 85 d9 ba f2 ef 76 bd ce ce de bd
       -0.08155006 -0.0016595561 -0.060287423 -0.108792886
000350 cf fc 9b bd 0d c3 b3 bd 0b 8d 67 be b0 50 a1 be
       -0.07616579 -0.08777437 -0.22612397 -0.31506872
000360 bc 4d 00 bc 0d ba 43 bd 96 f7 90 3d 5d 53 24 3d
       -0.007831033 -0.047784854 0.07078473 0.040118564
000370 9b cf 64 bd 96 27 a2 b9 97 55 38 bd 8e 8f 8a bd
       -0.05586205 -0.00030928542 -0.0450035 -0.06765662
000380 f9 b3 ae 3a f9 04 b2 3d 75 d3 e2 3d f9 58 80 3e
       0.0013328783 0.08692355 0.110754885 0.2506788
000390 20 53 3a 3d 8b d6 d5 bd 27 dc df 3c b8 ca 8c 3d
       0.04548943 -0.104413114 0.027326657 0.06874603
0003a0 83 7d d1 3c aa a9 35 3e 10 f1 1a 3e ac 5f 73 bd
       0.025572544 0.17740503 0.1513102 -0.05941741
0003b0 73 df 00 3e 30 ec 8a 3c 37 4d 3c 3c 7d d0 f4 3d
       0.12585239 0.016958326 0.011493019 0.119538285
0003c0 55 b2 3e 3c 68 90 e9 bd e0 c6 9b ba 7e 37 41 3c
       0.011639197 -0.114044964 -0.0011884831 0.0117930155
0003d0 2e 6b ba bd d6 11 04 be ee 1b 3c bd ce 7b 21 bd
       -0.09102474 -0.12897429 -0.045925073 -0.03942471
0003e0 11 20 f0 3c a1 38 e9 bd d6 29 2f 3e fb 03 62 bd
       0.029312165 -0.11387754 0.17105803 -0.055179577
0003f0 80 66 49 3d 48 55 37 bd c6 f7 76 3c ee 17 40 3d
       0.049170017 -0.044759065 0.015073722 0.04689782

conv2.bias f4 [64]
000000 41 ba db bd d9 2c 12 3c 9a 79 c8 bc 39 88 ea bd
       -0.107288845 0.008921825 -0.024472047 -0.11451764
000010 fc e1 a2 3b 30 39 d4 bc 50 96 e3 bc 60 3c 74 bc
       0.004970787 -0.025906175 -0.027781636 -0.014906973
000020 0b be d7 bd c2 dc 0e 3d 60 3a 16 3d 9d 09 17 3d
       -0.10534295 0.0348785 0.036676764 0.036874402
000030 f0 3e 01 bc c7 52 1e be c2 6d 92 bd 4c b3 c9 bc
       -0.007888541 -0.15461265 -0.07149841 -0.024621628
000040 dd 99 4a 3b dc 26 17 be f1 46 8c bd 59 58 26 bd
       0.0030914464 -0.14760917 -0.068494685 -0.0406116
000050 33 3b 1c 3b 89 39 19 bc 0e 88 a3 bc de c7 19 be
       0.0023838996 -0.009352096 -0.019962337 -0.1501765
000060 ee eb 89 3d 45 c5 05 3e 4c 70 6d bd e1 85 b5 bd
       0.06734453 0.13063534 -0.057968423 -0.08863426
000070 79 da 60 3d 0a f1 26 3d 85 90 f5 bd 07 5e 24 be
       0.05489585 0.040757217 -0.119904555 -0.16051494
000080 be 92 3c bd 29 82 19 be 86 4c c6 bd b3 7a 24 bd
       -0.04603838 -0.14991058 -0.096825644 -0.040156078
000090 d0 f6 71 3d b9 da dd bd c1 9b b4 3b ef 0c 85 bc
       0.05907327 -0.10832734 0.0055117314 -0.016241519
0000a0 95 07 ac bd 7d 69 55 bd ff 81 5c 3d 50 d0 74 bd
       -0.08399884 -0.052102555 0.05383491 -0.059768975
0000b0 ae 82 1f be 23 24 6b bd ac 81 ae bd 7a d5 1c bd
       -0.15577194 -0.05740751 -0.08520827 -0.038289525
0000c0 da 9e 15 3c 9c 61 62 bc 26 ec 55 3d 47 c0 53 be
       0.009132111 -0.013817217 0.05222716 -0.20678817
0000d0 7b 78 0e 3c 01 5d 4e bc 63 67 e4 bd d7 44 eb 3c
       0.008695717 -0.012595416 -0.11152532 0.028719349
0000e0 fa ca b7 bc fc 25 d9 bb 0e e4 a8 bd 8a 01 75 3d
       -0.022435654 -0.0066268425 -0.08246623 0.05981592
0000f0 49 dc 81 3d a0 be 12 be 54 6a 5b bb 8c 53 00 3e
       0.06340844 -0.1433053 -0.0033480125 0.1253187

bn2.weight f4 [64]
000000 b7 f2 09 40 37 39 0c 40 06 30 02 40 d1 42 14 40
       2.1554391 2.190992 2.034181 2.3165781
000010 db 4d 16 40 b2 fa 06 40 61 88 06 40 7c 78 12 40
       2.348502 2.1090512 2.102074 2.2886038
000020 68 89 10 40 c6 07 05 40 0e c0 d8 3f 69 a8 20 40
       2.2583866 2.0785995 1.693361 2.510279
000030 59 8e 1e 40 88 3e 09 40 3a 01 05 40 00 a3 e9 3f
       2.4774382 2.1444416 2.0781999 1.8252869
000040 98 a2 00 40 d5 c8 04 40 48 85 0b 40 91 3c 03 40
       2.009924 2.0747578 2.1800098 2.0505717
000050 bc 28 0f 40 a4 78 0a 40 ca 48 ee 3f 70 1f 1a 40
       2.2368612 2.1636133 1.8615963 2.4081688
000060 cb 22 1b 40 ae 1c 0c 40 20 7a 14 40 e8 51 08 40
       2.4239986 2.1892505 2.319954 2.1299992
000070 f6 d3 0e 40 18 61 22 40 c8 74 15 40 23 18 0e 40
       2.231687 2.5371761 2.3352528 2.2202232
000080 66 2f 06 40 9e 0e 0f 40 2a 36 0e 40 2a 5b 18 40
       2.096643 2.2352672 2.222056 2.3805642
000090 99 58 f9 3f 2d 75 25 40 bc 17 04 40 ab eb 02 40
       1.9480163 2.5852768 2.0639486 2.045634
0000a0 3d c4 f9 3f 69 b4 0f 40 f7 76 ee 3f c9 9c 23 40
       1.9513012 2.2453864 1.8630055 2.5564444
0000b0 53 f9 00 40 5c 40 02 40 7b e8 1b 40 60 88 f6 3f
       2.0152175 2.0351782 2.4360645 1.9260368
0000c0 2c 9b f6 3f 20 f3 f5 3f 9d 68 10 40 03 eb 19 40
       1.9266105 1.9214821 2.256385 2.404969
0000d0 8f 69 00 40 5c f5 11 40 5d 56 11 40 78 30 08 40
       2.0064428 2.2806005 2.2708962 2.1279583
0000e0 ea 81 1c 40 44 07 fb 3f 69 c8 05 40 36 af 01 40
       2.4454293 1.9611592 2.090357 2.026319
0000f0 f2 86 13 40 8c 8c 0c 40 9a 8b 10 40 00 42 0c 40
       2.3051114 2.1960783 2.2585206 2.1915283

bn2.bias f4 [64]
000000 99 66 d6 3d 55 8e a6 3e 0b 74 ea bc c7 be 4c 3e
       0.10468788 0.32530466 -0.028619787 0.19994651
000010 da 3c 90 3e e1 3f 1f 3c b1 8a 9c 3e 0d 75 a6 3e
       0.28171426 0.00971982 0.30574563 0.32511178
000020 e1 d7 d7 3e 4e fe 22 3e 9c 9a 52 3e 9c fc 41 3e
       0.4215689 0.15917322 0.20566791 0.18944019
000030 16 5d 32 3e 19 db c0 3d c3 34 61 3e e9 ee 99 3e
       0.17418322 0.094167896 0.21992783 0.30065086
000040 b8 6b af 3e 53 c9 f6 3d ae 8f a2 3d 48 e6 af 3e
       0.3426187 0.12050118 0.07937561 0.34355378
000050 99 76 78 3e 7a 3f 22 3e 15 85 2d 3e f8 61 1d 3e
       0.24263991 0.15844527 0.16945298 0.15369403
000060 eb 6f 78 3e d3 6e 9c 3d 79 f5 15 3e 85 33 d2 3c
       0.24261443 0.076383255 0.14644422 0.025659332
000070 53 8b 67 3e 3b 1c 6b bd 5c f9 1f 3e 99 ad f0 3d
       0.22611742 -0.05739997 0.15622467 0.11751861
000080 4f 5f 69 3e 74 3c ff 3d 06 98 2b 3e db 33 f0 3d
       0.22790264 0.124627024 0.16757211 0.11728641
000090 fa 46 93 bc 91 27 99 3e 16 30 57 3e 42 54 87 3e
       -0.01797818 0.29913 0.21014437 0.2643147
0000a0 55 72 16 3e ce 37 3d 3e 9b f2 6a 3e 3e c5 a5 3e
       0.14692052 0.18478319 0.22944109 0.32377046
0000b0 c9 5f 44 3e cd 3c 65 3e 73 2f 8c 3e a6 ec 4b 3e
       0.19177164 0.22386475 0.2737995 0.19914493
0000c0 4a 23 13 3e 25 36 57 3e 1f a8 50 3e 12 f3 d6 3c
       0.1436893 0.21016748 0.20376633 0.026238952
0000d0 7f 95 8e 3d 28 21 16 3e 37 45 61 3e 24 57 a8 bd
       0.06962108 0.14661086 0.2199906 -0.08219746
0000e0 0f 7f 96 3b 5b a5 19 3e a2 75 ef 3d d1 89 91 3e
       0.0045927833 0.15004484 0.116923586 0.28425458
0000f0 d8 fd 0c 3e 4e cb 62 3e 91 7a 5d 3d b5 a0 a0 3e
       0.13768709 0.22147867 0.054071967 0.3137261

bn2.running_mean f4 [64]
000000 81 01 4f be 63 6e 8b be e6 de 67 3e 2c dd 4b bf
       -0.20215417 -0.27232656 0.22643623 -0.79634356
000010 58 b1 34 bd f3 e9 3f 3f 0b 6a 17 3f d4 91 4b be
       -0.04411444 0.74966353 0.59146184 -0.19879848
000020 c1 b5 45 bd 5d bc ab be 88 d4 e1 be 28 d3 3a 3d
       -0.048269037 -0.33542147 -0.4410746 0.04561153
000030 23 45 96 bd 4c af 52 bf b5 72 7a 3d 1f 67 b5 be
       -0.073374055 -0.8229873 0.06114455 -0.35430238
000040 92 83 d6 be 63 ed a8 be 71 e8 e9 be b4 56 ac bf
       -0.41897255 -0.32993612 -0.4568515 -1.346396
000050 2b 27 09 3e f8 7c 08 40 31 e4 3a 3e 44 cf 0d bf
       0.13393848 2.1326275 0.1825111 -0.5539439
000060 88 55 02 3f 66 89 06 3f f1 ac a5 be 30 8e 21 be
       0.5091176 0.52553403 -0.32358506 -0.15776896
000070 de 49 bf 3d 6d c4 12 be 71 35 a7 be 28 5c a9 bf
       0.09340261 -0.14332743 -0.3265796 -1.3231249
000080 4f c9 a2 bd 07 22 37 bf 37 71 2b 3e 4f e7 8e be
       -0.07948553 -0.71536297 0.16742407 -0.2791085
000090 e3 60 b6 3e 79 af 63 bf ad d6 1e be d6 4c 11 be
       0.35620794 -0.88939625 -0.1551158 -0.14189467
0000a0 4d 77 0a bf 2d b1 14 bf 17 aa 77 be 81 0d 55 3e
       -0.5408829 -0.5808285 -0.24185978 0.20805933
0000b0 1e ed 1b bf ee 4e 66 bf 9a 44 1a bf 5a ea 01 bf
       -0.6090869 -0.8996419 -0.6026093 -0.5074822
0000c0 bd 2b a7 3d b9 ed 9b 3e a5 73 1a be 03 cd b2 bf
       0.08162639 0.30454805 -0.15083177 -1.3968815
0000d0 01 86 ce be c1 a8 01 3c 0e 4a 6b 3d b0 f5 23 bf
       -0.40336612 0.007913769 0.05744367 -0.64046764
0000e0 c1 65 81 be 31 bc b3 be 43 7c 90 be a2 79 7d 3f
       -0.25272945 -0.35104516 -0.28219804 0.9901372
0000f0 cb 3f f1 bd 53 75 40 bf cf 1f 2a be 09 1d 01 3f
       -0.11779746 -0.7517902 -0.16613697 0.5043493

bn2.running_var f4 [64]
000000 90 cc 82 3e 05 af 89 3e 1f 39 3e 3e c7 7d 73 3e
       0.25546694 0.26891342 0.18576477 0.23778449
000010 89 f5 85 3e e4 30 83 3e 12 ec 87 3e f5 55 af 3e
       0.2616389 0.25623238 0.26547295 0.34245268
000020 ed 81 58 3e bc 8a 94 3e 7b c0 a1 3e c5 4d 08 3e
       0.21143313 0.29012096 0.31592163 0.13310917
000030 9c bb 0b 3e 21 09 35 3e 8b 4f 7a 3e 39 2f 6a 3e
       0.13645786 0.17679264 0.24444406 0.22869577
000040 88 85 89 3e a1 f9 41 3e 08 66 95 3e 25 42 f9 3e
       0.2685969 0.18942882 0.29179406 0.48683277
000050 86 48 4e 3e 43 2c d9 3e b7 6f 53 3e 9b 5e 3a 3e
       0.20144853 0.42416582 0.20648085 0.18200152
000060 68 f0 9e 3e cb 9e 69 3e 73 05 80 3e 22 bc 89 3e
       0.3104279 0.22814481 0.25004157 0.26901346
000070 9e 54 64 3e d5 2d 2a 3e 10 e0 3c 3e 3a 8a 80 3e
       0.22297904 0.16619046 0.18444848 0.25105458
000080 f1 31 55 3e 24 ef f8 3d e3 9f 68 3e d1 cf 6c 3e
       0.20819832 0.121549875 0.22717242 0.2312615
000090 1c 28 24 3e df 7c 7b 3e 0d 26 5e 3e 0c b9 4e 3e
       0.16030926 0.24559353 0.21694203 0.20187777
0000a0 0c 62 86 3e f1 c9 97 3e f6 f1 2e 3e cd b6 44 3e
       0.2624668 0.29646257 0.17084488 0.19210358
0000b0 f8 b9 94 3e 88 7c 85 3e eb b6 0d 3e b6 c1 5c 3e
       0.29048133 0.26071572 0.13839309 0.2155827
0000c0 50 b5 84 3e 1c 72 a8 3e 8d d0 75 3e f1 87 6c 3e
       0.2591958 0.3289956 0.24005337 0.23098733
0000d0 52 80 a4 3e 02 e4 28 3e e0 83 49 3e 17 2d 8b 3e
       0.3212915 0.16493228 0.19679213 0.27182838
0000e0 fe 54 34 3e ae ca 51 3e 58 ec 6f 3e ab 51 b9 3e
       0.17610547 0.20487472 0.23430002 0.3619512
0000f0 4b 9a 4a 3e 94 c4 6c 3e 1b f2 20 3e 81 e2 3e 3e
       0.1978542 0.23121864 0.15717356 0.18641092

fc.weight f4 [8, 64]
000000 ce 69 b5 3e e9 f1 06 3f 21 f6 1e 3d fa dd 30 bf
       0.35432285 0.52712876 0.038808946 -0.6908871
000010 3e 43 fc bd 8a 23 08 3f 08 fb 04 3d 4b ec 5b 3e
       -0.12317513 0.5317923 0.032465965 0.21476857
000020 68 e0 94 bf e8 36 0f bf da 3a de be 9a c5 d9 be
       -1.1630983 -0.55943155 -0.43404275 -0.4253357
000030 cc b8 eb 3e 6b 56 79 3e 3e a0 5a be 18 b8 1e bf
       0.46039426 0.24349372 -0.2135019 -0.61999655
000040 cb 29 96 bf 3f 5d 8b be f9 23 d8 3e 74 2b 4a be
       -1.1731504 -0.2721958 0.42214945 -0.19743139
000050 26 87 b2 be 63 95 f5 bd 2b 1d 41 be c8 d3 0d bf
       -0.34868735 -0.11991384 -0.18858783 -0.5540128
000060 27 78 04 3f 09 4e d6 3e 7b e8 c3 3e 81 99 85 3e
       0.5174584 0.4185641 0.38263306 0.26093677
000070 d5 39 5b be d8 d0 4e bf a2 7c ab 3e 72 70 24 3f
       -0.2140878 -0.8078742 0.33493525 0.6423408
000080 33 72 39 3f a8 96 b6 3e e1 00 02 3f fa a8 92 3e
       0.7243988 0.35661817 0.5078259 0.28644544
000090 b2 71 9e be 2f 33 95 3d fd d6 f3 be 73 31 6e bf
       -0.30946118 0.07285153 -0.4762496 -0.93044204
0000a0 67 ea 26 3f c6 2c 17 bf ce 43 4e bf 2f 06 d5 bd
       0.6520142 -0.59052694 -0.8057221 -0.1040157
0000b0 80 9d 84 3e e9 61 d6 3e 36 85 3a be 9d 86 df 3d
       0.25901413 0.41871575 -0.18214878 0.10914347
0000c0 d5 00 fa 3e cb 24 f4 be 54 43 c1 bd 35 a8 07 3f
       0.4882876 -0.4768432 -0.0943667 0.5299104
0000d0 92 47 0d bf c9 3f b6 be 04 4a 49 3e a5 5b 1f bd
       -0.5518733 -0.3559554 0.19657141 -0.03890576
0000e0 d7 4c 15 3f e8 66 ab be 8d 6e e9 3e 17 13 02 bf
       0.58320373 -0.3347695 0.45592156 -0.5081038
0000f0 44 df 7b be a5 60 6a bf a2 bf ad be c4 92 82 3e
       -0.24596888 -0.9155372 -0.33935267 0.25502598
000100 cc 14 1d 3f a6 f6 a5 3e 15 ac c6 3e 1a 3f 0d 3f
       0.6135986 0.3241474 0.38803163 0.5517441
000110 26 d2 ef bd 8a 24 08 3f 12 2e 07 bf 02 f7 0e 3f
       -0.117100045 0.53180754 -0.5280467 0.55845654
000120 b7 87 29 bd d3 8b c5 be aa a8 cb 3d 5e b4 50 3f
       -0.041389193 -0.3858324 0.099442795 0.8152522
000130 9f bc c6 3d 11 9e 74 bf 1d 04 68 3c b6 4f b0 bd
       0.09703945 -0.9555369 0.014161137 -0.08608954
000140 be de a8 3e f8 05 4c 3e fa 99 87 3e 30 80 91 3e
       0.3298244 0.19924152 0.26484662 0.28418112
000150 aa 82 15 3f 3c b2 1e bf 0f a7 07 bf db be 39 be
       0.584025 -0.61990714 -0.52989286 -0.18139212
000160 e8 46 b6 3e d4 df 74 bf f6 cd 9d 3e eb 39 3c 3f
       0.35600972 -0.95654035 0.30821198 0.73525876
000170 ff b3 8b bf 6d 75 43 3f 0c 6c f1 3e ff 87 e9 bc
       -1.0914305 0.7635105 0.47152746 -0.02850723
000180 cb 65 90 be 34 94 45 bf 54 ca 0c bf 75 8c 85 bf
       -0.28202662 -0.77179265 -0.5499623 -1.0433489
000190 9c 44 37 3f fb 6c 80 be 5d a7 01 3e 42 48 99 be
       0.71589065 -0.25083145 0.126615 -0.2993794
0001a0 53 f1 c7 be d0 d8 8a bd 87 cf 23 bf e3 e4 3e bc
       -0.39051303 -0.06779635 -0.63988537 -0.0116512505
0001b0 40 92 9f be 81 68 81 3d c1 b7 7f 3d fa 0b 34 bf
       -0.31166267 0.06318761 0.0624311 -0.70330775
0001c0 12 e9 e6 be a3 5d d7 be d9 9d 04 bf 5f 71 77 bc
       -0.45099694 -0.42063627 -0.51803356 -0.015102713
0001d0 f9 58 4f bf 19 b3 fe 3e 2c 4b 15 3e dc 44 d4 be
       -0.80995136 0.49746016 0.14579457 -0.41458786
0001e0 73 ce 45 3c 50 df f6 3e f5 53 4a bf 20 27 f6 be
       0.012073147 0.4821725 -0.7903436 -0.48076725
0001f0 2f 75 7b bf 76 a3 c9 bd ce e0 df 3e 20 b6 b0 3e
       -0.9822568 -0.09845631 0.437262 0.3451395
000200 0e 6c 9d be 6c 18 0e bf ef 6d c7 3d 87 f1 83 3c
       -0.30746502 -0.55506015 0.09737765 0.01610638
000210 c6 53 78 bf 2e 1c 24 bf 05 cb 08 3d 93 dc 03 bf
       -0.9700283 -0.641055 0.03339674 -0.51508445
000220 46 73 32 3d 62 e6 7a 3e 02 3a ca be 56 78 d7 3e
       0.043566965 0.24501947 -0.3949738 0.42083997
000230 2f 13 6b 3e 10 32 07 3e 2b 11 c4 be 98 69 a5 be
       0.22956537 0.13202691 -0.38294348 -0.32307124
000240 3d 79 b7 3b 19 75 ba 3e 73 78 50 be 0f 7f 7d bf
       0.0055991695 0.36417463 -0.20358448 -0.99022
000250 e6 04 36 be 26 4d c3 3e 63 51 b1 3e 14 96 ed 3e
       -0.17775306 0.38144797 0.34632406 0.46403563
000260 f4 9e d7 be 0f d1 10 bf b6 af bd 3e a3 3f d1 be
       -0.4211346 -0.56569 0.3704812 -0.40868863
000270 ff f3 ec bd ea 24 66 3f 35 cb 97 3d f9 b9 6a 3e
       -0.11569976 0.89900076 0.074118055 0.22922505
000280 4a 72 a1 be 63 9e c5 3e aa ad 26 bf c9 89 7c be
       -0.31532508 0.38597402 -0.6510874 -0.24661936
000290 2d 1e 12 be f4 8b aa 3e 79 fe 1b bf 37 ff d6 3e
       -0.14269324 0.333099 -0.6093517 0.41991588
0002a0 c6 2c 35 bf 5f 7d 2b 3d a1 76 e2 3e 18 68 a6 3e
       -0.70771444 0.04186761 0.44231132 0.32501292
0002b0 79 bd 30 bd 7f 1d 48 bf 35 58 a7 3e 30 39 8c bd
       -0.043149445 -0.7817001 0.32684484 -0.06846845
0002c0 b8 1b fc bd 28 8c e4 3d e8 74 c2 3c d7 14 a4 3e
       -0.123099744 0.11159545 0.023737386 0.3204715
0002d0 45 94 bf 3e 04 56 0d 3f 2b f0 be 3e ee e9 23 bd
       0.37417808 0.55209374 0.3729261 -0.040018015
0002e0 8c 3a 69 be 1f 48 e1 be c1 ab 7a bd 11 fb db bd
       -0.2277624 -0.44000337 -0.061198954 -0.107412465
0002f0 85 95 12 be 82 5c 76 3e 2b 9b ee 3e 6d 56 97 be
       -0.1431485 0.24058726 0.4660276 -0.29558125
000300 63 55 1b 3e 74 b5 0c 3e be 8a 3f 3f 2c ad 6f 3e
       0.15169291 0.13741094 0.7482108 0.23405904
000310 5c b4 ee 3e 53 3c 04 bd 93 41 82 3e 34 99 74 bf
       0.46621978 -0.032284092 0.25440654 -0.9554627
000320 22 7a 71 3e 29 9d 81 be 93 68 4e be 7a 46 bd 3c
       0.23581746 -0.25315216 -0.2015708 0.023104895
000330 0f da 14 3f 13 93 0e bf 9d 95 59 be 69 d4 a1 3c
       0.5814523 -0.5569317 -0.21248479 0.019754605
000340 77 00 49 be 4a b3 51 bf 78 0d 95 3e b2 2c 15 3d
       -0.19629084 -0.819142 0.29111838 0.036419578
000350 6e 7a 0d 3f 56 e2 56 3e a0 dc 3a be f7 b4 8f bf
       0.5526494 0.20984778 -0.18248224 -1.1227101
000360 46 de 86 bf fb 76 b4 3e 85 8d 5b bf 66 2c fb be
       -1.0536582 0.35247025 -0.85762817 -0.4905731
000370 1e 0a c5 be 02 4c e0 bd c2 6f 50 3e c1 a1 64 bf
       -0.3848428 -0.10951997 0.20355132 -0.89309317
000380 21 e0 0d 3e ac 9f 01 3d 7f ab c6 be 47 eb b3 be
       0.1385503 0.031646416 -0.38802716 -0.3514044
000390 05 3c 81 be c0 eb ab bf 60 85 03 3f 0e 51 99 3e
       -0.25241104 -1.343132 0.5137539 0.29944652
0003a0 f3 db 3b bd 8b 98 7e bf 1a 58 49 3e 92 fb bf 3e
       -0.045864057 -0.9945151 0.19662514 0.3749662
0003b0 9a 54 41 bf 7b 89 03 bd 99 38 95 bf b7 72 17 be
       -0.75519717 -0.032113533 -1.1657897 -0.14789854
0003c0 de 06 de be a2 10 4a 3d 1a 69 00 3f 32 80 05 3f
       -0.43364614 0.04933227 0.5016037 0.52148736
0003d0 fc e8 04 bf b2 56 17 3f 9c 8b 39 3f 5d 2d 64 3f
       -0.51918006 0.5911666 0.7247865 0.8913172
0003e0 83 bf 65 3f 14 e7 14 be 49 9b c5 be 1b be d5 3d
       0.8974535 -0.14541274 -0.38595036 0.1043665
0003f0 9f fb 31 bf 1c 6c 46 bf 6d 94 3f 3f b4 e7 bd 3e
       -0.6952457 -0.7750871 0.74835855 0.37090838

fc.bias f4 [8]
000000 05 3d 01 be 0d 8b 8d bc 62 6e 75 bd e0 11 80 bc
       -0.12620933 -0.017278219 -0.059919722 -0.015633523
000010 f9 9f 2d bd f7 b9 4b 3d e6 1e dd bd d3 3d b3 bd
       -0.04238889 0.049737897 -0.10796909 -0.087520264
